mlp.model (torch, 10511 bytes, 3 tensors)

linear1.weight f4 [200, 9]
00000000: 03b8 38be 4075 43bd 88bd 5bbe a061 c9bd
00000010: 132d 25be 2021 023c 6a16 6f3e 4639 4cbe
00000020: 785c 51bd 73c8 d73b a92c 6c3d b15f ff3d
00000030: 27f3 863e bdd3 0bbe 35a6 363e 21d3 533e
00000040: be45 bc3e 890d 81bd 1c9d a73e 533b a7bd
00000050: e25c 62be 9454 68be 4889 c0bd 4dae 4ebe
00000060: 6143 24be 22d4 98be 6eb5 353c eb71 d73c
00000070: b12c c6bd a527 8a3e 6af7 c03d 958f 8f3e
00000080: 94a5 c33e b24a d43e 179d 1d3e d19c 483e
00000090: e534 393e 6e70 1cbe 781c 673e 07fa 78be
000000a0: 5f87 8bbe 1410 e4bd 9878 72bd fd18 23be
000000b0: 7eab 263b 1ab5 f53d 3454 1abc b090 96be
000000c0: 657d 9d3e d67a 79be 18e8 a63d 1a37 92bb
000000d0: c004 24be 3269 cb3d 7268 cbbd 35e8 91be
000000e0: 4f70 4abe 1b13 a0be c484 09bd 946d 9e3e
000000f0: b3f8 70be 5f5d 96bd 7cc6 a43e 05ad 2b3e
00000100: 5f1d b03e 4c20 84be cbe2 28be fc0a 573e
00000110: 8a58 50be 3fd7 8b3e 4e83 b73e 829a f4bc
00000120: a733 953e 57dd 33be 4a31 cdbc 2bca 4ebe
00000130: d01d 72be cd41 36be 1dea b3bb 50b7 953e
00000140: e390 9ebe b0e3 be3c 2f5d 74be 04a9 99bc
00000150: da26 913e f1fb ad3e 9273 bf3b 7e05 5f3e
00000160: 2ba6 913e 93d0 b1bc ee73 52be c639 b8bd
00000170: 8693 cdbd 20fa 493c e617 ecbd 6047 11bd
00000180: 402e 6dbd 03b9 993e f976 8e3e 4db1 5dbd
00000190: 1113 adbe 2027 783d 0ed5 23be e5ed 50bd
000001a0: 1129 3bbd 107a db3d 6127 993d 01d8 233e
000001b0: 1679 a93e 78a4 ecbd a92f 89be 7a35 6abd
000001c0: 0ebe 4bbe dfb7 43be 096c 9fbe 3b24 563d
000001d0: 55fa a1be f016 5d3d 4f2b 25be 7201 b33e
000001e0: a5bf 7f3e 530b 9d3e 435a ff3d 6df1 a73e
000001f0: cf63 8b3e d4e7 51be 215f 263d 87bb d23d
00000200: 4544 813e 1878 cb3d fb6d 1cbe b1ea 863e
00000210: 7834 863e 2a08 bdbc 758c 13be b070 90bc
00000220: aaaf 1cbe 6312 bfbd cbb8 0cbd 0d77 043e
00000230: ce80 45be 7b2e 053e 7d74 913d 1cda 2ebd
00000240: c482 d83c d787 db3b 727f 12bd d6d1 1a3e
00000250: b1bb ab3e 0f16 77be fe2f 87bd 3525 d3bd
00000260: 642c ed3d 05c4 15be 98e8 04be 8279 3ebd
00000270: 6a3b 8cbd cbdc 97be 26f4 05be 8476 ef3d
00000280: 422f 2cbe 5d0e 25be 6168 953e c6b2 5e3e
00000290: d0a7 d53c bc48 833d e018 7dbc c769 84be
000002a0: b669 9fbe fc18 bcbd 13d4 8fbe aca5 a23e
000002b0: a89a 38be b579 4dbd f10f 2ebe ffe2 fa3d
000002c0: 5796 45bd 51c1 3d3d 8801 93be 0117 eebd
000002d0: 2e60 d3bd 15ee 8bbe f4f1 ff3b ad29 2ebe
000002e0: eed5 9abe a3ce 95be a108 99be 816f 733e
000002f0: 3298 0abe c0b3 bb3d 1b82 b1be 3563 63bd
00000300: c1f7 83be 4fa0 c0be 2b27 483e 3367 88be
00000310: 0ac3 aabd 5fe8 b9be 8992 2d3e 0674 55be
00000320: 283d 38be 0d07 c3bd 467a 24bd b738 42be
00000330: 15b3 443e b7f8 693e 0043 883e 8286 0dbd
00000340: 2b4e 1dbc 61ab b5be 002b e93d f8ed 31be
00000350: 56f7 5e3e 6945 503e 78b3 8fbe 620b d9bd
00000360: 3640 193e dd79 8fbe 6c00 8ebe a364 a83b
00000370: f9b3 47be d2a4 283e 8cc0 453d 5acc c9bb
00000380: 0e8f 93be b882 073c 906d 52be 30cc 8c3e
00000390: 06a0 433e 13cb 753e 6200 abbd f839 6cbe
000003a0: d73a 77be 9a48 87be 1303 913e 462e 3bbe
000003b0: 68cd 153e b135 8b3e 004c be3c a83c 39be
000003c0: f1f2 943e 0048 ecbb a053 3f3c 38a6 86be
000003d0: d245 693e 680e 143d f693 85be 35f1 873e
000003e0: f072 c03c 9e1e 90be 2ee2 2e3e 38cb 06bd
000003f0: 05e7 203e 1dab 0ebe 4bf7 0fbd 8f3b cc3d
-0.18038945 -0.04771924 -0.21459019 -0.098330736 -0.16130476 0.007942468 0.23348394 -0.19943723
-0.051113576 0.0065851747 0.05765978 0.124694236 0.26357386 -0.1365499 0.1783684 0.20686008
0.3677196 -0.0630141 0.32737052 -0.08165612 -0.22105744 -0.22688514 -0.09401184 -0.20183678
-0.16041328 -0.29849344 0.0110906195 0.026299438 -0.09676493 0.2698337 0.094221905 0.28039232
0.38212264 0.41463238 0.15391956 0.1959107 0.18086584 -0.15277264 0.22569454 -0.24314128
-0.27251717 -0.11135879 -0.05919704 -0.15927501 0.0025431807 0.11997433 -0.00941949 -0.29407263
0.3075973 -0.24363264 0.08149737 -0.004462135 -0.16017437 0.09932174 -0.09932031 -0.28497472
-0.19769405 -0.31264576 -0.03357388 0.30942976 -0.23532371 -0.07342028 0.32182682 0.1676522
0.34397408 -0.2580589 -0.16492765 0.21000284 -0.20346275 0.27312657 0.35842365 -0.029858831
0.2914097 -0.17564903 -0.025047917 -0.20194308 -0.23644185 -0.17798539 -0.005490555 0.2924142
-0.30969915 0.02330193 -0.23863672 -0.01875735 0.28349954 0.3398128 0.0058426345 0.21779439
0.2844709 -0.021705901 -0.20552036 -0.089953944 -0.100379035 0.012327701 -0.11527996 -0.03546846
-0.057905436 0.30023965 0.27825144 -0.054124165 -0.3380361 0.060584188 -0.15999243 -0.051008124
-0.04569346 0.10716641 0.07478214 0.16000368 0.33100194 -0.115548074 -0.26794174 -0.057179905
-0.19896719 -0.1911311 -0.31137112 0.052280646 -0.316363 0.053976953 -0.16129802 0.3496204
0.2497545 0.30672702 0.12468388 0.3280138 0.27224585 -0.20498592 0.040618066 0.10289674
0.25247398 0.099350154 -0.15276329 0.2635093 0.26211905 -0.023075182 -0.14409049 -0.017631859
-0.15301386 -0.09329679 -0.03435592 0.1293604 -0.19287416 0.13006012 0.071022965 -0.042688474
0.026429541 0.006699543 -0.035766073 0.15119109 0.33541635 -0.24129508 -0.06600951 -0.10309831
0.115807325 -0.14625557 -0.12979352 -0.046502598 -0.0684727 -0.2966064 -0.13081416 0.11692527
-0.16814902 -0.1611876 0.29181197 0.21747884 0.026080996 0.06410357 -0.015447825 -0.25861952
-0.3113534 -0.09184453 -0.28091487 0.31767023 -0.18027747 -0.050164897 -0.16998269 0.12250327
-0.04823908 0.04632694 -0.28712106 -0.116254814 -0.10321079 -0.2733008 0.0078108255 -0.17008086
-0.3024134 -0.29259214 -0.29889396 0.23773004 -0.1353462 0.09165144 -0.34669575 -0.055514533
-0.2577496 -0.37622306 0.19546191 -0.26641235 -0.08337982 -0.36310098 0.1695043 -0.2084504
-0.1799208 -0.09522829 -0.04015567 -0.18966947 0.1920894 0.22848783 0.26613617 -0.034552105
-0.009601156 -0.35482314 0.11385155 -0.17375934 0.21774039 0.20338978 -0.2806661 -0.10597874
0.14965901 -0.28022662 -0.27734697 0.00513895 -0.19502248 0.16469124 0.04827933 -0.006158394
-0.2882008 0.008270912 -0.20549607 0.27499533 0.19104013 0.24003248 -0.083496824 -0.23068988
-0.2414354 -0.26422578 0.28322658 -0.1827937 0.14629138 0.271894 0.023229599 -0.18089545
0.290916 -0.0072107315 0.011677653 -0.2629869 0.2278054 0.03614655 -0.26089448 0.26551214
0.023492306 -0.2814836 0.17078468 -0.03290865 0.15713127 -0.13932462 -0.035147946 0.099722974

linear1.bias f4 [200]
00000000: 1875 5fbd 500d 9b3e 2931 b63e da19 ad3e
00000010: f4b6 5e3e a1f9 113d c7d6 a63e 09a0 0abe
00000020: 97fa 9bbe 36fc b03e e971 813e 6a15 833e
00000030: c1aa f2bd 3eb1 0dbe fb42 bf3c 4ef3 53be
00000040: d006 d23e 6e51 a33e 748d 8abd 559f e9bc
00000050: 7ca7 973d bf4c 00be 769d 61be fe76 36be
00000060: c841 73be 5864 b83e aae9 93be feeb 5d3e
00000070: 5a61 e2bd 5a8b 98bc c356 2d3e 1e7d 83be
00000080: 8028 173c 1360 f73d e98d e53d 62bf c73d
00000090: 7e62 37be 869e b2bd 996d 4ebe 4c5f 5dbe
000000a0: 6f31 98be 401d 0bbe bf46 8dbe 4677 f0bd
000000b0: f619 f8bd aae7 103e 3da9 a7be 5e15 d33d
000000c0: f0a5 e33d 425c 7cbd 4b85 8a3e 3b28 b43e
000000d0: 3b24 80be 40ff 653d 5264 b1bd 81af 343e
000000e0: 7282 1e3e ea1b 9cbc 5bd8 9fbe 674f f9bd
000000f0: f5f1 033f e0a6 5abe 8d23 8a3d 400f 91bd
00000100: a739 babd 493d 9c3e a844 903e b491 023e
00000110: 2303 03be 1ee1 66be 014c 9a3e 49d2 943e
00000120: e083 403c b1e3 b4be 14d1 773e 7922 8d3e
00000130: d362 a63e 4934 be3d c18a 983e 4905 c33c
00000140: a044 a03e 03e1 883e 5e9e 0d3e dc9c d83d
00000150: 4c4e a73d 3a6d 22bd 0060 1d3b d3df b2be
00000160: 1158 a73e 75fd 673e 9ff6 e8bc 1d26 2bbe
00000170: af68 a13e 565b 30be 819b 943e 0353 a6be
00000180: e578 153e ed8d 5bbc 35e1 0f3e a7a3 813e
00000190: 5f69 82be f2c4 753e 2f6c 993e e382 84be
000001a0: 4932 8a3e 67a6 36be 94d4 d9bd d189 a83e
000001b0: 860c 26be dcf6 ea3e 47a0 733e f878 5f3e
000001c0: 2747 97be c7d2 973d 2b99 9bbe 14f1 e6bd
000001d0: c489 843d 662f 92be 6e52 4ebe 4c0d c0be
000001e0: f042 20be e48a 91bd 3042 c4bd df96 3b3d
000001f0: 9bd3 17be 3628 2cbe 9be1 18be 5098 e83d
00000200: a7b4 453e 4402 ec3d e7f9 133e c70c 8dbe
00000210: c1f3 98be 411d b83d 0b93 34bd 2472 d6bd
00000220: ebb2 48be 13ef 84bd f6ae 5f3e 9c71 a5be
00000230: 7bc1 a8be b839 9bbe 50ff 8dbd 005a 55bb
00000240: cb40 1a3e 48f3 653e 996c 68be 258b 103e
00000250: d1e5 b53b d266 c5be ebea 753e 2a72 02be
00000260: a5e8 863e 7cd2 5bbd 947b 9bbe 80a1 a53c
00000270: 04c0 b63d 7dac cc3e f007 2dbe 6acb 7b3e
00000280: 905d febd ec1a 823e 7f29 a03e 1064 843e
00000290: 7a83 9abe 4785 823e 0be2 9dbe 0eff 6fbe
000002a0: 3357 42be 4e8b 0fbf 8eed 8abe 368c 26be
000002b0: 1f05 4bbd b887 5fbb 7ed9 c7bd 8097 68bd
000002c0: 1828 71be 40dd dbbb 83d1 be3d 17ab 4fbe
000002d0: c0b2 1e3d 3810 ac3e 9b4b 17bd f3e1 d9be
000002e0: 2124 723e 269e 0fbe 60dd e43d 4eb3 df3d
000002f0: ff64 dc3e f58b 0f3e a984 153d b5d8 a23c
00000300: f032 523e 8d42 9f3e b9cb bb3d 9b16 9d3e
00000310: adbe a63e a60b e13b 6baf c93d 10a5 83be
-0.05455503 0.30283594 0.3558438 0.33808786 0.21749479 0.035638455 0.32585737 -0.13537611
-0.30464622 0.34567422 0.2528222 0.25602275 -0.11848975 -0.13837144 0.023347368 -0.20698282
0.41020823 0.31898063 -0.06765261 -0.028518358 0.07404992 -0.12529276 -0.22032723 -0.1781883
-0.23755562 0.36014056 -0.2888921 0.21672055 -0.110537246 -0.018621136 0.16927628 -0.25681394
0.009225965 0.120788716 0.11208708 0.097533 -0.17908666 -0.08721642 -0.20158996 -0.21618384
-0.29725215 -0.13585377 -0.27593037 -0.117414996 -0.12114327 0.14150873 -0.32746306 0.1030681
0.111156344 -0.06161142 0.2705482 0.35186943 -0.25027642 0.05615163 -0.08661713 0.17645074
0.15479448 -0.01905628 -0.31219754 -0.12173348 0.5154107 -0.2135272 0.06745062 -0.07082987
-0.090930276 0.30515507 0.2817738 0.12750894 -0.12794165 -0.22546813 0.3013611 0.29066685
0.011750191 -0.35329965 0.2420085 0.27565363 0.32497272 0.09287316 0.2979336 0.023806231
0.31302357 0.2673417 0.13829944 0.105767936 0.08169231 -0.039654948 0.002401352 -0.3493639
0.32684377 0.2265528 -0.02843791 -0.16713758 0.3152518 -0.17222342 0.2902489 -0.32485208
0.14596899 -0.013400537 0.14050753 0.2532017 -0.25471017 0.2400091 0.2996535 -0.2588111
0.2699149 -0.17836915 -0.10636249 0.32917646 -0.16215715 0.45891464 0.2379161 0.2182349
-0.29546472 0.074132495 -0.30390295 -0.11276451 0.06471589 -0.28551787 -0.20148632 -0.37510145
-0.15650535 -0.071065694 -0.09582937 0.04579818 -0.14826815 -0.16812214 -0.14929812 0.11357176
0.19307195 0.1152387 0.14450799 -0.2754881 -0.2987347 0.08989955 -0.044085544 -0.10470989
-0.19599502 -0.06490912 0.21844086 -0.3231324 -0.32960114 -0.30317473 -0.069334626 -0.0032554865
0.15063779 0.22456086 -0.22697677 0.1411558 0.005551078 -0.38555008 0.24015395 -0.12738863
0.2634937 -0.05366753 -0.3036772 0.02021861 0.08923343 0.39975348 -0.16897559 0.24589315
-0.124201894 0.25411165 0.3128166 0.25857592 -0.30178434 0.25492308 -0.3083652 -0.2343714
-0.18978576 -0.5607194 -0.27134365 -0.16264424 -0.04956543 -0.0034107994 -0.0975828 -0.056785107
-0.23550451 -0.0067097247 0.09317305 -0.2028011 0.038744688 0.33606124 -0.036937337 -0.42555198
0.23646595 -0.14025173 0.111750364 0.109228715 0.43045804 0.14018233 0.036503468 0.019878725
0.20527244 0.31105462 0.091697164 0.3068131 0.3256735 0.0068678437 0.098479114 -0.2571187

linear2.weight f4 [1, 200]
00000000: 1b5b 0ebd 6a18 a93d 28bb 333d 4ee2 7d3d
00000010: dd7e b73d fb92 873c 8c94 3ebd 5638 433e
00000020: 1ff6 a83d cd1d 893d ea55 43bd e781 2bbd
00000030: 8892 f93d cce2 db3d 3ee1 893d 2bb4 91bd
00000040: 927b 493d 4736 9bbd 305c af3a d01b 823d
00000050: cea2 c8bd 0254 75bc fdb2 9a3d 138d 86bc
00000060: ddae cc3d 107b c63d 0723 70bc 8a3e 14bd
00000070: 709d f13d 1795 983c 840b 07bd 4fed 103d
00000080: 2938 d5bd 064c b43d cd8d 1e3e eb29 e23c
00000090: 2bb5 82bd 340c 23bd 76e6 f9bd a254 3dbd
000000a0: 9954 073d 23dd 48bc 1793 bdbc 801a a03c
000000b0: c5e6 b2bd 3a6d 08bd 9e24 cfbd 4cd0 eabd
000000c0: f161 cd3c 2d33 b53d 12de f33d 8f51 ea3d
000000d0: 0bec 28bd 2d49 71bc 3cca cdbd 5e22 9bbd
000000e0: dcc3 f7bb a54d ccbd e73e c93d 41fb 1bbe
000000f0: c6e9 0d3d 645e d7bc e53e 7fbe 0f21 f9bc
00000100: d09f d7bd bae9 8c3c 7672 a8bd 5b3f 0abd
00000110: 0fe3 d33d e304 36bd c858 593d 21f9 74bd
00000120: cf5f 80bd 4b3c 68bd 1535 a63d f05a 7b3d
00000130: b157 9cbd 80e4 303e bbed 903d d913 c23d
00000140: a1b4 913d efa4 76bd 31aa 51bd 6b45 8f3d
00000150: 425a a83d c2cb ab3d d840 85bd 803b bebd
00000160: be53 8bbc e8fb 30bd a482 f33d 3bca 2f3d
00000170: 0a2c 243d e17c f43c 9b96 3c3d 5aa1 0a3d
00000180: 7380 143e 93c5 d3bd 0f6b 5bbd 8adf 88bd
00000190: 0ea5 6d3b 8423 14bd fcb9 bd3d 5f00 c5bd
000001a0: dbc1 863c 037b 63bd ad6c f53d 915d 90bd
000001b0: 8476 6bbd 14e2 523d d1d1 ebbd ec73 8a3d
000001c0: 8fcb c9bd ce9b 66bd 73db 973d 6459 f8bd
000001d0: 70f6 c5bc 0304 d93c f060 47bd 58d2 7cbd
000001e0: c423 6cbd 9c8c df3d 9495 d1ba b250 e2bd
000001f0: 2088 f23d 76d2 563d c095 073d 391b d1bc
00000200: b3e2 01bd ebfa 80bd 8157 cb3d 73f8 e2bc
00000210: bb2f bdbd b961 fc3d 2cea 393d 7ff5 bebd
00000220: 71ec edbd e2e2 c83d 2565 01bd da22 81ba
00000230: 03f3 0fbe e7f2 6f3d 44ed c83d 8c97 efbd
00000240: 1a92 1abd e19e 8d3d 1fe8 ddbd 8e1f 47bd
00000250: 32df 81bd 792e 8cbd 10f8 063e ca9b 43bd
00000260: 4b61 9f3d 3016 743d 44ad 25bd 9be2 933c
00000270: 9f38 f8bd 7989 393d 7d95 a6bd 8a4d 2f3d
00000280: 1c93 f03d 24a5 6e3d 253d 0c3d 0383 733d
00000290: fee7 80bd 1099 d9bd 5ccd cd3d 8650 453d
000002a0: 8f5f 89bc c9a8 2ebd e8c5 14bd 53e3 053d
000002b0: b8d8 ce3d dc76 39bd 00d8 303d d891 d83d
000002c0: 1fdc e83c d769 703d b359 1bbd 6af6 f93c
000002d0: 865c b3bc 34a7 f53d a12d 893d 455f 23bd
000002e0: 8950 453d c7a2 9a3d ed98 ccbd 8f14 3d3d
000002f0: 9766 2a3d 0616 893d 2d10 acbd 5d94 693d
00000300: 425e eebc 2fa0 abbd 8530 783c c3b4 8a3d
00000310: bd77 e9bc dbaa a5bd 367d de3d f589 0ebe
-0.034754854 0.0825661 0.043879658 0.0619834 0.08959744 0.016549578 -0.046528384 0.19064459
0.08250069 0.06695137 -0.047689356 -0.04187193 0.12186152 0.107366174 0.06732415 -0.071144424
0.04919011 -0.07578712 0.0013378914 0.06352961 -0.097966775 -0.014973642 0.075536706 -0.016424691
0.0999429 0.09691441 -0.014656789 -0.036192454 0.11797607 0.01862578 -0.032969967 0.035382565
-0.10411102 0.08803563 0.1548378 0.027607879 -0.06382211 -0.03980656 -0.1220216 -0.04622329
0.033039663 -0.012259754 -0.023141427 0.019543886 -0.08735422 -0.03330729 -0.10114406 -0.11465511
0.025071116 0.08847652 0.11907591 0.11441337 -0.041240733 -0.014726919 -0.10048339 -0.075749144
-0.00756119 -0.09975747 0.09826451 -0.15232565 0.03464677 -0.026290126 -0.24926336 -0.030411271
-0.10528529 0.017201293 -0.08224957 -0.033751827 0.10346042 -0.044438254 0.053063184 -0.0598079
-0.06268274 -0.056698125 0.08115593 0.06136602 -0.07633913 0.17274666 0.070765935 0.09476442
0.0711453 -0.060215887 -0.051187698 0.06995662 0.0822034 0.08388473 -0.065065086 -0.092886925
-0.017007705 -0.043208987 0.11890152 0.04291747 0.04008106 0.029844703 0.046042066 0.033845283
0.14502124 -0.10340419 -0.053568896 -0.06683262 0.003626171 -0.036166683 0.09263989 -0.096192114
0.01644986 -0.055537235 0.11983619 -0.070490964 -0.057486072 0.051485136 -0.11514629 0.067603916
-0.09853279 -0.05630093 0.074149035 -0.12126425 -0.024165362 0.02649117 -0.04867643 -0.061724037
-0.057651296 0.10915491 -0.0015990012 -0.11050548 0.1184237 0.052446805 0.033101797 -0.025525676
-0.031710338 -0.06297859 0.099287994 -0.02770636 -0.092376195 0.123233266 0.04538934 -0.093241684
-0.11617363 0.098088995 -0.0315906 -0.0009852306 -0.14057545 0.05858126 0.0981088 -0.11698827
-0.03773699 0.06915069 -0.10835289 -0.048614077 -0.06341399 -0.068448015 0.13180566 -0.047755994
0.07782229 0.059591472 -0.040448442 0.01805239 -0.121201746 0.04529712 -0.081339814 0.042798556
0.11746809 0.05826296 0.034238 0.059451114 -0.06294249 -0.106248975 0.10048935 0.048172496
-0.016769199 -0.042641435 -0.03632155 0.032687496 0.100999296 -0.04527937 0.043174744 0.105746925
0.028425274 0.058694687 -0.03792734 0.030513007 -0.021894705 0.11994782 0.06698156 -0.039885778
0.048172507 0.075505786 -0.09990106 0.046162184 0.041601744 0.06693654 -0.08401523 0.057026256
-0.02909768 -0.08380162 0.015148287 0.06772759 -0.028499478 -0.08089229 0.10863726 -0.13919814
